data.pth (torch, 5399 bytes, 6 tensors)

l1.weight f4 [8, 56]
000000 bc 58 b6 bd ea 85 b4 be 94 14 78 bf b0 a9 44 3c
       -0.089036435 -0.35258418 -0.969064 0.012003347
000010 3d 5e 69 3e c9 59 a0 3e e9 d8 c8 bd f7 f6 b8 3e
       0.22789855 0.313185 -0.09806997 0.3612592
000020 30 e8 1a be 41 f8 9c 3f 1e 2a a8 3e fe 4e cb bb
       -0.15127635 1.2263261 0.32844633 -0.006204485
000030 6f d5 91 3f 71 7a 75 bf 54 5a 42 be 7b d8 8f bd
       1.139326 -0.95889956 -0.1897977 -0.07023712
000040 6f 71 a9 3e 93 ed 8b 3e 96 af ca 3e 97 2e fb 3e
       0.33094355 0.27329692 0.39587086 0.49058983
000050 fd 49 4d be 3d c6 0f 3f ee 9f 0b 3f 28 73 0b bf
       -0.20047756 0.5616186 0.5454091 -0.5447259
000060 e0 ba ba 3e 03 5b 42 be 61 ad 2f 3f bb 69 1c 3f
       0.364707 -0.1898003 0.6862393 0.6109883
000070 09 59 c5 3e fc 9a 3a 3f 01 f9 2e be 6e 56 30 bd
       0.3854449 0.7289274 -0.17087175 -0.043051176
000080 5b 6f 00 3f 5a 5f a8 bb 4e fb ec 3e 07 8a d6 3f
       0.50169915 -0.00513832 0.4628548 1.6760873
000090 ff b0 68 be e4 90 0c 3e 6c 6e 1d 3e 66 8c 36 3f
       -0.22723769 0.13727146 0.15374154 0.7130798
0000a0 83 f8 e5 3e 7c a7 6c 3e 0e e5 fe 3d 20 fa f8 bd
       0.44916162 0.23110765 0.124460325 -0.121570826
0000b0 38 58 ec 3e 12 8d e2 be b8 69 10 be cf cc 53 3e
       0.46161056 -0.44248253 -0.14102829 0.20683597
0000c0 e2 c4 95 3d e7 89 2b 3e 5f 10 a8 3e 78 39 25 3d
       0.07312943 0.16751824 0.3282499 0.04033801
0000d0 0e 4b c3 3d 99 67 29 3c e9 d9 b8 3e 98 48 9f 3d
       0.095358 0.010339641 0.36103752 0.07777518
0000e0 df f8 3c 3f 52 33 a6 bd fa 35 0e 3f 3d cf 07 3f
       0.7381725 -0.08115257 0.5555111 0.53050596
0000f0 2d d2 dd 3e 98 96 09 3f b1 c1 d5 3e b7 5c 6e be
       0.43324414 0.5374541 0.41749337 -0.23277555
000100 e0 d4 c0 3e b8 f5 b0 bf fe d8 01 3f c7 08 c2 3e
       0.3766241 -1.3824987 0.5072173 0.37897322
000110 67 18 8e bf 8e 3e 98 bf d2 aa 4b 3f b1 e7 22 3e
       -1.1101197 -1.189409 0.79557526 0.15908696
000120 a7 c5 97 be 53 57 ed 3e 7f 30 62 be b6 ae 4a 3f
       -0.29642984 0.46355686 -0.22088812 0.7917284
000130 62 a6 e3 3e 29 af 71 3f 35 df 6d 3f 3f 1a a5 3f
       0.44462878 0.944079 0.9291871 1.2898635
000140 42 f2 e9 3e 15 0c 5e 3f 71 1c 18 bf f5 c2 0d bf
       0.4569264 0.86737186 -0.594184 -0.55375606
000150 03 d7 7d be 61 4f 0f bf 1a 5a 32 3f c9 8b d5 3e
       -0.24789052 -0.559805 0.69668734 0.4170821
000160 e3 37 8a 3d f4 53 fb 3d d5 5e fb ba 85 48 95 bf
       0.06748941 0.12271872 -0.0019178042 -1.1662756
000170 d2 e9 13 3f 9e 8d 41 3f 09 5c 90 3e 3d 30 c7 3f
       0.57778656 0.75606716 0.28195217 1.5561596
000180 02 d4 a0 be 8e a9 4d be 07 b0 0b 3f 5f d2 04 3f
       -0.3141175 -0.20084211 0.5456547 0.518835
000190 63 d5 75 be 1b 5f a3 3f 81 3b 1d 3f 99 18 97 3e
       -0.24007182 1.2763399 0.6141892 0.29510954
0001a0 57 0d bf 3e d2 ef 15 3f df e9 31 3e 0a d1 dc 3e
       0.37314865 0.5856906 0.17374371 0.43128234
0001b0 6c 93 4b 3e 16 78 26 3f cf 0b c4 bd 66 8a 4c 3f
       0.19880456 0.65026987 -0.09572565 0.7989868
0001c0 a8 30 39 3f fa 45 2f be 5f 87 16 bf 61 5c 17 3f
       0.7233987 -0.17116538 -0.5880031 0.59125334
0001d0 88 06 f0 be d2 32 8b bd 14 3d 9f 3e e3 ae 61 3f
       -0.46879983 -0.067968026 0.31101286 0.8815748
0001e0 ed 89 cd 3e 15 e5 b7 3e ef e7 8d be 8a a8 e4 3e
       0.40144292 0.35916963 -0.27716014 0.44659835
0001f0 97 fa 9c bf b4 4e ac 3f a7 9b 95 3f a3 53 1e bf
       -1.2263974 1.3461518 1.1688126 -0.6184637
000200 7f 7b 58 3d b4 d7 cd be 48 9a 89 3f 1f c3 2d bf
       0.05285215 -0.4020363 1.0750208 -0.67875856
000210 a7 a9 b7 3e 56 78 2b bf bc 47 25 bf db de 88 bf
       0.35871622 -0.66980493 -0.6456258 -1.069301
000220 33 b7 34 bf d1 cc 85 3e 55 bc e7 3d 83 fb 15 bf
       -0.7059204 0.26132825 0.11315218 -0.585869
000230 c0 55 2f 3f cd cd 72 3e 66 ae 6b 3f f6 19 c3 3e
       0.6849022 0.2371132 0.92062986 0.38105744
000240 f3 68 36 3e 5c 34 17 3e e3 7b de 3d 9c d9 a9 bd
       0.17813472 0.14766067 0.10863473 -0.08293459
000250 12 26 02 3f 46 0d 23 3f 57 c5 bb be e8 f9 87 bf
       0.5083934 0.6369213 -0.36673996 -1.062314
000260 29 27 2e 3f df 4a 8e 3d 5a 3b 06 3f a8 91 dc 3e
       0.68028504 0.06947874 0.52434313 0.43079877
000270 43 74 60 3d bf 8b 82 3f 35 26 e1 3e 08 9e e8 be
       0.054798376 1.0198897 0.43974462 -0.45433068
000280 4b dd 18 3f 84 41 4a 3f 1f 12 ea 3e a1 e9 9f 3e
       0.59712666 0.7900622 0.4571695 0.31232932
000290 ac 2e 2c 3f 13 95 bb 3e 56 ba 2d 3d a0 2c 31 3f
       0.67258716 0.36637172 0.042414032 0.6920872
0002a0 f1 b3 c7 3e 43 73 0b 3f c4 57 43 bf c2 32 06 3f
       0.39004472 0.5447275 -0.76305795 0.524212
0002b0 ab dc f2 3e ca 20 92 3e 4b cc 79 3e 60 80 5a bf
       0.4743398 0.2854064 0.24394338 -0.85352135
0002c0 08 fd f2 be e6 b8 a8 bf 82 f1 0e 3f 45 07 f8 be
       -0.47458673 -1.3181427 0.5583726 -0.48443046
0002d0 81 69 9b 3f 22 21 a0 bf 85 13 6e 3f 67 89 e5 3e
       1.2141572 -1.2510111 0.92998534 0.44831392
0002e0 c3 50 81 3e 94 50 eb 3e 2d 9f 45 bf f1 f9 4b 3f
       0.2525693 0.45959914 -0.7719601 0.79678255
0002f0 ca 4f c6 3e a4 ee 1d 3f 55 1c 22 3f ae 1d d0 3f
       0.3873275 0.6169226 0.6332448 1.6259058
000300 e0 30 08 3f 93 2d 89 3e 17 c0 45 3f 79 62 23 3f
       0.5319958 0.26792583 0.7724623 0.6382213
000310 71 43 d1 be 0d 5b 45 3f 36 1d 1b 3f 17 e6 07 3e
       -0.40871766 0.7709206 0.6059145 0.13271366
000320 04 52 da 3e 3a 98 dc 3e cf df 9c 3e f6 a4 66 3e
       0.42640698 0.4308489 0.30639502 0.22523865
000330 43 1b 8a 3e b4 7a eb be 10 67 26 3e 04 e1 db 3f
       0.26973924 -0.45992053 0.16250253 1.7178044
000340 74 bb b2 be ca 32 01 3f 56 50 18 bf fa b0 79 bf
       -0.3490864 0.5046812 -0.5949758 -0.9753567
000350 59 e7 b8 3e c1 13 24 3f 45 55 d7 3e 89 60 06 3f
       0.36114004 0.6409264 0.42057243 0.5249105
000360 4a 94 db 3e 79 54 09 3f c5 0e 35 be 52 c1 2b bf
       0.42886573 0.5364452 -0.17681415 -0.6709186
000370 59 88 54 bf 48 8d 0e 3e 94 a3 fe 3c 0e 18 03 bf
       -0.8302055 0.13921082 0.03108386 -0.5120858
000380 27 ba e0 be 89 98 40 3f 08 32 7c bf f1 3f ef 3e
       -0.43892023 0.7523275 -0.9851384 0.4672847
000390 52 2c b9 3e ae 4d 21 3f 3e c2 d3 3d d0 5f 4c 3f
       0.36166626 0.63009155 0.10339783 0.798337
0003a0 21 e0 8e 3e 78 1a a4 3f af a4 7c 3e e8 a3 69 3f
       0.27905372 1.2820578 0.24672197 0.91265726
0003b0 26 55 1d bf 0e c0 c6 3e 7a 73 64 3e 00 f7 aa 3f
       -0.6145805 0.388184 0.22309676 1.3356628
0003c0 17 e3 09 3f 2f 4f 36 3e bc 9d 34 3f 24 91 ab 3e
       0.53862137 0.17803644 0.70553184 0.3350917
0003d0 a3 30 0f bf c8 07 64 3e 90 76 69 3e 98 04 b5 bf
       -0.5593359 0.22268593 0.22799134 -1.4142027
0003e0 83 4b 6f 3e 98 03 68 3f ed c3 a0 3f 03 28 1f 3f
       0.23368649 0.90630484 1.2559792 0.6217043
0003f0 4c 85 c1 3e c2 2f 92 3f 0a a1 16 3f 0f d1 c1 be
       0.3779701 1.1420825 0.58839476 -0.37854812

l1.bias f4 [8]
000000 15 14 dd 3e f2 1b 41 3f 37 2f 28 3f 5d d1 75 3f
       0.43179384 0.75433266 0.65697044 0.9602259
000010 79 91 b2 3f 1e f0 41 3f 87 fc 36 3f a7 e3 e6 3e
       1.3950645 0.75757015 0.71479076 0.4509556

l2.weight f4 [8, 8]
000000 82 05 a4 be 3a 5f 6c be a7 e3 5b bc ff 5b cf 3d
       -0.32035452 -0.23083201 -0.013420976 0.10124969
000010 f9 f4 30 bc 7d e6 21 be 00 82 a2 3d 66 ae 26 3e
       -0.0108005935 -0.1581058 0.07934952 0.16277465
000020 87 5a 36 bf 2d 2f 1e be 96 69 af 3f c7 8a 83 bf
       -0.71231884 -0.15447684 1.3704097 -1.0276726
000030 80 e4 b8 3f 28 dd a7 3f 0b 19 bc 3e 34 0b 1c bf
       1.4444733 1.3114367 0.36737856 -0.60954595
000040 d3 3c a3 bf 32 2d 06 40 b5 85 18 bf b5 e9 aa 3f
       -1.2752937 2.0965085 -0.5957902 1.3352572
000050 91 84 fb be d4 42 e3 3f 68 86 0f 3e 08 c6 a4 3f
       -0.49124578 1.7754769 0.14016116 1.2872934
000060 4c a2 04 40 57 fd dc 3d 3b a9 b1 bf c5 35 d8 3f
       2.0724058 0.10790508 -1.387977 1.6891409
000070 c6 0c ca 3f 7f 18 72 bf 54 57 83 3f c8 34 2a bf
       1.5785148 -0.9456863 1.0261025 -0.6648679
000080 33 b3 cc 3e c6 f6 e0 3d 2a d7 06 3f 6b 23 56 bf
       0.39980468 0.10984568 0.52672064 -0.83647794
000090 2e 16 ad 3e e8 f1 0e 3f 74 9d a4 bd 69 8f 3a 3f
       0.33805984 0.5583787 -0.08037844 0.72875077
0000a0 b9 ee 76 3e ef 98 5b 3f 00 81 a9 3f 01 57 ec 3e
       0.24114503 0.85780233 1.3242493 0.4616013
0000b0 3e 38 c3 3e be 82 4b bf e6 95 99 bf e8 05 ea 3f
       0.38128847 -0.7949637 -1.199887 1.8283052
0000c0 9e b0 d5 3e 2e e6 b8 be cc 2b 97 3f 69 40 b4 3e
       0.4173631 -0.36113113 1.1810241 0.3520539
0000d0 8a 86 94 3f 08 65 86 3f 73 a0 11 40 d9 8b f8 bf
       1.1603558 1.0499582 2.275418 -1.9417678
0000e0 ea fd d6 bd 4d 38 ce 3f c2 1c 36 3f 17 6e f8 3e
       -0.10497649 1.6110932 0.7113763 0.48521492
0000f0 8b b6 76 3f cc 06 96 bf f4 e9 82 bf b8 eb 82 3f
       0.9637229 -1.1720824 -1.0227647 1.0228186

l2.bias f4 [8]
000000 1e c7 9c be 93 8b 1b 3f 3d 20 a5 3e ab 3a 57 3f
       -0.30620664 0.6075985 0.32251158 0.84073895
000010 d7 70 73 be c6 63 a3 3e 45 d6 07 3f 2d dc 3e 3e
       -0.23773514 0.3191206 0.53061324 0.18638678

l3.weight f4 [14, 8]
000000 23 ed 93 3c 65 54 2a 3e b2 49 7a 3f 67 b7 17 c0
       0.018057412 0.16633756 0.977687 -2.370569
000010 ee 08 b9 3f 45 a1 d2 be 39 0d 81 bf 97 f0 42 bf
       1.445585 -0.41138664 -1.008216 -0.7614836
000020 89 48 1e bc 78 d7 0a 3f 65 7f 2a c0 54 b8 45 bd
       -0.009660848 0.5423503 -2.6640255 -0.048271492
000030 1b 45 90 3f d4 46 fa bf 64 94 23 3f 31 21 ec bf
       1.1271089 -1.9552865 0.638983 -1.8447629
000040 7b be f8 bd 22 8a 03 c0 f6 82 84 bf 13 89 59 3f
       -0.12145706 -2.055306 -1.0352466 0.84974784
000050 39 a1 54 c0 e7 60 11 c0 54 87 35 3f 86 7f f2 bf
       -3.3223403 -2.2715394 0.7090962 -1.8945167
000060 de 69 4c be ef 80 80 3f 22 61 65 bf cf 08 04 c0
       -0.1996226 1.0039347 -0.8960134 -2.0630376
000070 59 2e b6 3f c4 18 9b bf 27 a0 22 3f 38 c0 a5 bf
       1.4232894 -1.2116933 0.63525623 -1.2949286
000080 ee ac ff 3c c6 9a ea 3d c4 8a 21 3d 19 1e 4d bf
       0.031210389 0.11455302 0.039438978 -0.8012405
000090 fb b8 f4 be 4a 61 39 3c 9d 77 e0 3c a8 20 cd 3d
       -0.4779738 0.011314699 0.027400786 0.10015994
0000a0 41 37 84 be 2d ed 35 3d b7 24 24 c0 34 dd 14 3f
       -0.25823405 0.04441564 -2.564741 0.5815003
0000b0 92 16 4f c0 5d 84 0d bf 0b 73 aa 3e 22 15 82 3d
       -3.2357526 -0.55280095 0.33290896 0.06351687
0000c0 ad 4b f2 bb 88 17 04 3f cd 3f 41 c0 0a 27 26 bf
       -0.007394275 0.51598406 -3.019519 -0.6490332
0000d0 90 8d 54 3f 27 fc e7 3e d3 fb 0a bb 87 67 e3 3e
       0.8302851 0.45309564 -0.0021207228 0.44414923
0000e0 88 03 91 be f1 25 00 c0 48 77 5b 3d 90 b2 ed 3e
       -0.28323007 -2.0023158 0.053580552 0.46425295
0000f0 58 f4 da bf d3 40 2e 3d ee 90 1c c0 17 eb 2d 3f
       -1.7105818 0.04254229 -2.4463458 0.67936844
000100 37 54 07 3d 86 83 f3 bf 60 90 93 3f 88 75 08 bf
       0.033039298 -1.9024513 1.1528435 -0.5330434
000110 59 d9 26 c0 b6 56 03 bf ac dd 0e bf 19 ce 91 be
       -2.6070158 -0.51304185 -0.55806994 -0.28477553
000120 2b 43 cc be 4c 30 0b c0 e8 a9 1f c0 72 32 45 3f
       -0.39894995 -2.1748228 -2.4947453 0.770301
000130 fa 8a cd 3f ac de 00 3f 09 bd 49 bf 31 65 4e 3e
       1.6058037 0.5033977 -0.7880407 0.20155789
000140 a6 9b 2d be f9 f8 09 3f 08 fe 27 be a5 b9 8d bd
       -0.16953906 0.5389553 -0.16405499 -0.069201745
000150 3f 89 20 bf 68 7e bb bf 49 0c 77 3e 51 3f 16 bf
       -0.6270942 -1.4647951 0.2412578 -0.58690363
000160 c6 1f 26 be 8e 30 ae bf 4e 30 76 be 76 c5 12 3f
       -0.16223058 -1.3608568 -0.24041864 0.5733255
000170 e6 b1 81 c0 30 6d 51 bf e3 32 89 be 26 d3 c4 3e
       -4.052966 -0.8180723 -0.26796636 0.38442343
000180 f1 1d 59 3e ab cd 2f 3c 51 f0 7b bf d1 58 88 bf
       0.21202828 0.010730187 -0.9841357 -1.0652105
000190 7f 0a 7e 3f 08 a8 10 3f d0 f4 dc bf 89 b7 29 3f
       0.99234766 0.56506395 -1.7262211 0.6629568
0001a0 db 8a 8e 3d 8a e4 d2 bf 0b 10 ec 3e f2 3b ef bf
       0.06960078 -1.6475995 0.4610599 -1.8690169
0001b0 b4 95 c9 bf 43 68 42 3f df 95 e6 bf 85 e1 ff 3e
       -1.5748811 0.7594034 -1.8014487 0.49976745

l3.bias f4 [14]
000000 5e 99 a5 3e 64 2b 3c 3e 9f 22 35 3e 7b 6e 58 be
       0.32343572 0.18375927 0.17688988 -0.21135895
000010 fe 3f d3 3d 99 86 47 bd de 7d a1 3c 7d d4 c7 be
       0.1031494 -0.048712347 0.019713338 -0.39029303
000020 a2 99 3a bc da 82 f0 3e ab 5b 24 3e e4 2f 29 be
       -0.011389168 0.46974832 0.16050594 -0.16522175
000030 01 df d0 be cc 45 f0 bd
       -0.40795138 -0.11732063
