data.pth (torch, 5399 bytes, 6 tensors)

l1.weight f4 [8, 56]
0	0x3f14ded5	0.58152515
1	0x3e242ab3	0.16031913
2	0xbf821820	-1.0163612
3	0xbe9e398c	-0.3090328
4	0xbdeae734	-0.1146988
5	0xbe9820ce	-0.29712528
6	0xbd953b46	-0.07286696
7	0xbf0c27cd	-0.5474823
8	0xbe762bb6	-0.24040112
9	0xbf85910d	-1.0434891
10	0xbe8d1cfe	-0.27561182
11	0xbe9fefe6	-0.31237715
12	0x3fdd3a22	1.7283366
13	0x3fb52541	1.4151994
14	0x3c9764ae	0.018480625
15	0x3e55046d	0.2080247
16	0x3e62da8a	0.22153679
17	0xbe8b3dcd	-0.27195588
18	0xbf0c23c3	-0.5474207
19	0xbf0c2435	-0.5474275
20	0x3e9bfd8a	0.30466872
21	0xbf0c1ae2	-0.5472852
22	0xbf0c1f00	-0.547348
23	0x3fab2417	1.3370389
24	0xbeb0aca9	-0.3450673
25	0xbec1bbc7	-0.37838575
26	0x3f2e9c9c	0.68207717
27	0x3ecef20c	0.40419042
28	0xbebbe975	-0.3670155
29	0x3f1c26fc	0.60996985
30	0xbe36cb35	-0.17850955
31	0x3ed73ff9	0.42040995
32	0x3e1c65d2	0.15273216
33	0x3ead6ad7	0.33870575
34	0x3eea6ee0	0.45787716
35	0xbf867504	-1.050446
36	0xbee9493b	-0.45563683
37	0xbeacfd4b	-0.33786997
38	0x3e0d9dce	0.13829729
39	0xbf926b67	-1.1439027
40	0xbe8c3620	-0.27385044
41	0x3e5508e5	0.20804174
42	0xbdd48591	-0.10377038
43	0xbe12438e	-0.14283583
44	0x3e80bbda	0.2514332
45	0x3f761acc	0.9613464
46	0x3ef52798	0.4788177
47	0xbd89e663	-0.06733396
48	0xbe3a7ad1	-0.18210913
49	0xbe062d22	-0.13103154
50	0xbdd269ff	-0.102741234
51	0xbe1d2602	-0.1534653
52	0xbeb0142d	-0.34390393
53	0x3dc3b9ea	0.09556945
54	0x3d9bf837	0.076157026
55	0xbe5742b1	-0.21021535
56	0x3f3b8fbd	0.732662
57	0x3e91c7a3	0.28472623
58	0xbf8bd782	-1.0925143
59	0x3e09734e	0.13422891
60	0xbf0809e7	-0.5314011
61	0xbe6568fa	-0.22403327
62	0xbdd431fc	-0.10361096
63	0xbf10912d	-0.5647152
64	0x3eea4c6c	0.4576143
65	0x3fa57d83	1.2928928
66	0xbe81592c	-0.25263345
67	0x3f02a616	0.5103468
68	0xbf438de1	-0.76388365
69	0x3f8be5ae	1.0929468
70	0xbde2ea16	-0.110798046
71	0x3fac5f8b	1.3466657
72	0xbda786ec	-0.08180031
73	0xbe9f7d14	-0.31150115
74	0xbf105efd	-0.5639494
75	0xbf107e32	-0.5644256
76	0x3ef6b8d2	0.48187882
77	0xbf107fab	-0.56444806
78	0xbf1084b7	-0.56452507
79	0x3fcefebc	1.6171489
80	0xbf1b9634	-0.60776067
81	0x3e9b0a0a	0.30281097
82	0xbf2949f8	-0.6612849
83	0xbeee197b	-0.46503815
84	0xbf004ce4	-0.50117326
85	0xbe8c9c6a	-0.27463084
86	0x3ceff719	0.02929263
87	0x3f13587f	0.5755691
88	0xbe68deda	-0.22741261
89	0x3e2776f9	0.16353978
90	0x3ec76a4a	0.3894828
91	0xbfa6f05d	-1.3042103
92	0xbe66598a	-0.22495094
93	0x3f2bca6e	0.6710576
94	0x3eb5251e	0.3537988
95	0xbfa18342	-1.2618182
96	0xbea8edcf	-0.32993934
97	0xbe4d25d2	-0.20033959
98	0x3eba6f63	0.36413106
99	0x3ee2b91a	0.44281846
100	0xbe8037c5	-0.2504255
101	0x3fa058a5	1.2527052
102	0x3edbe691	0.42949346
103	0xbeab8360	-0.3349867
104	0x3e4c9660	0.19979239
105	0x3e9d6182	0.30738455
106	0x3e3df210	0.18549371
107	0x3f129059	0.5725151
108	0x3f1968b1	0.5992537
109	0x3e89f4bb	0.26944527
110	0x3d5a04b8	0.053227156
111	0x3f1259bb	0.5716817
112	0x3f02e29c	0.5112703
113	0x3f080014	0.5312512
114	0x3e8334da	0.2562626
115	0xbd8abc82	-0.06774236
116	0x3eeeb714	0.46624053
117	0x3e623825	0.2209173
118	0x3cb5bb32	0.022183988
119	0x3eb92db4	0.3616768
120	0x3ac9ad77	0.001538678
121	0x3fa0f2a6	1.257405
122	0x3ecd482a	0.4009412
123	0xbedb87d0	-0.42877054
124	0x3ee5416a	0.4477647
125	0xbfabab9b	-1.3411745
126	0xbe882077	-0.2658727
127	0x3fd4027e	1.656326
128	0x3d9f6c72	0.07784356
129	0x3ef5b170	0.47986937
130	0x3eb5d7a5	0.35516086
131	0x3f252c6c	0.6452091
132	0x3f038de1	0.51388365
133	0x3f1d82f1	0.61527926
134	0x3f1cfcfa	0.6132351
135	0xbf93c140	-1.154335
136	0x3eb4b133	0.35291442
137	0x3d3c8e11	0.046033923
138	0x3d9bfd9d	0.07616732
139	0xbdeb2a0b	-0.114826284
140	0x3e84781f	0.25872895
141	0x3d3c7913	0.046013903
142	0x3db9a40a	0.09064491
143	0x3e91fd94	0.28513777
144	0xbd2a70e7	-0.04161158
145	0x3f0bf037	0.54663414
146	0x3eecce06	0.46250933
147	0xbfe67bdb	-1.8006548
148	0x3da489c4	0.08034089
149	0x3c545de1	0.012961836
150	0x3efaa8b1	0.48956826
151	0xbfbf71a2	-1.4956553
152	0x3e5093dc	0.20368904
153	0x3d8693ff	0.06571197
154	0xbd7052d9	-0.05867276
155	0xbe175fe3	-0.14782672
156	0xbe4fa820	-0.20278978
157	0x3f8e3ae5	1.1111723
158	0x3ef7b738	0.48381972
159	0x3ee85626	0.45378226
160	0xbdba79f7	-0.09105294
161	0x3d82e16e	0.063906536
162	0xbe0c4e1e	-0.13701674
163	0xbe4b7ceb	-0.19871871
164	0xbf0bf309	-0.5466772
165	0x3eaadd79	0.33372095
166	0x3bbbc7e9	0.0057306183
167	0xbd150448	-0.036381036
168	0xbe652a28	-0.22379363
169	0xbef83268	-0.48475957
170	0xbef6d9fc	-0.48213184
171	0x3eb3b748	0.3510077
172	0xbeaa6a24	-0.33284104
173	0x3c3f7d87	0.011687643
174	0x3e61e36e	0.22059414
175	0xbe764e6e	-0.24053356
176	0x3e46679b	0.1937546
177	0x3fc214a8	1.5162554
178	0xbd1dba3b	-0.03850768
179	0x3f133cc4	0.57514596
180	0xbf7bbc34	-0.9833405
181	0x3fb8b3a5	1.4429823
182	0x3f1dfd2f	0.6171445
183	0xbe45c344	-0.19312769
184	0x3d2e40bd	0.042542208
185	0xbe8175c8	-0.25285172
186	0xbe6d2b91	-0.2316115
187	0xbe643a21	-0.222878
188	0xbd90762f	-0.07053792
189	0xbe8be744	-0.2732488
190	0xbe66dfdb	-0.22546332
191	0xbf4db74b	-0.8035781
192	0xbf037bcd	-0.5136078
193	0x3eaa50fc	0.3326491
194	0xbec93e2d	-0.3930525
195	0xbe4db420	-0.20088243
196	0xbe1d58fe	-0.15365979
197	0xbe974c11	-0.29550222
198	0x3f03a830	0.5142851
199	0xbe0256d5	-0.12728436
200	0xbe086ef1	-0.13323571
201	0xbe29f868	-0.16598666
202	0x3de5aa7e	0.112141594
203	0x3feb4173	1.8379349
204	0x3ccfecb7	0.02538143
205	0x3f0e2c23	0.555361
206	0xbe31f97b	-0.17380325
207	0x3fb6850f	1.4259356
208	0xbe8a15bd	-0.2696971
209	0xbe14908a	-0.14508262
210	0x3eeb6617	0.45976326
211	0x3f2410ea	0.6408831
212	0xbd17a589	-0.0370231
213	0xbf014752	-0.5049945
214	0xbc90ce7b	-0.017676583
215	0xbe858697	-0.26079246
216	0x3ec2a718	0.38018107
217	0x3f16b37f	0.5886764
218	0x3e23c641	0.15993597
219	0x3f13101a	0.57446444
220	0x3f46e593	0.7769405
221	0x3e791248	0.2432338
222	0xbe15f354	-0.14643604
223	0x3f0cb832	0.5496856
224	0x3f1b3392	0.60625565
225	0xbe63343b	-0.22187893
226	0xbfc214d7	-1.516261
227	0x3e51b488	0.20479023
228	0xbf2b2b0b	-0.66862553
229	0xbd156d85	-0.0364814
230	0x3e4e095c	0.20120758
231	0x3f7acd65	0.9796966
232	0x3edf5bb4	0.4362465
233	0x3fd0fec7	1.6327752
234	0xbe888a48	-0.26668
235	0x3f005a6d	0.5013798
236	0xbfbe1551	-1.4850255
237	0xbf8aceb0	-1.0844326
238	0x3f0deb5a	0.55437243
239	0x3f10df55	0.5659078
240	0xbec3006d	-0.38086262
241	0xbed43be4	-0.41451943
242	0x3f71d363	0.94463176
243	0xbf3c43da	-0.73541033
244	0x3f11ea24	0.56997895
245	0xbf3791dc	-0.7170694
246	0xbf3f04aa	-0.7461649
247	0x3f5e17a3	0.86754817
248	0xbf481855	-0.7816213
249	0x3f08d3c5	0.53448135
250	0xbf6894b4	-0.908519
251	0xbf482f42	-0.7819711
252	0x3efbfae5	0.49214855
253	0xbf72a7cc	-0.9478729
254	0x3e40207f	0.18762396
255	0x3f0a0786	0.5391773

l1.bias f4 [8]
0	0x3f0b53d3	0.5442478
1	0x3f0fa916	0.5611738
2	0x3f7a78e6	0.97840726
3	0x3e84ffd2	0.25976425
4	0x3f710f13	0.94163626
5	0x3f387869	0.7205873
6	0x3f4576e0	0.77134514
7	0x3f0163ba	0.50542796

l2.weight f4 [8, 8]
0	0xbefd98b7	-0.49530575
1	0xbf6d1064	-0.92603135
2	0xbec44a1d	-0.38337794
3	0x3f5ddf95	0.86669284
4	0x3f9bf7d6	1.2185009
5	0x3f08d208	0.5344548
6	0xbf4174e1	-0.7556897
7	0x3f5e86c7	0.86924404
8	0x3fda5e9a	1.706012
9	0x3fe012f3	1.7505783
10	0x3f10fb80	0.5663376
11	0x3d2709be	0.040780775
12	0xbd17fcc7	-0.0371063
13	0x3e9dda31	0.3083053
14	0x3f655843	0.895878
15	0xbec3db16	-0.38253087
16	0x3f603aa4	0.8758948
17	0xbf11027b	-0.5664441
18	0x3f64f1b6	0.8943132
19	0xbf6a2d58	-0.9147544
20	0xbfc24ba7	-1.5179337
21	0x3f8407ce	1.0314882
22	0x3f960bbe	1.1722333
23	0x3f697d27	0.9120659
24	0xbff48b47	-1.9105004
25	0xbf3b6841	-0.73205954
26	0x3fa3b7b3	1.2790436
27	0x3f9f295a	1.2434494
28	0x3f406c1c	0.7516496
29	0x3f34ff1f	0.70701784
30	0x3f7da0ec	0.9907367
31	0x3fa6cfaf	1.303213
32	0x3eab08bd	0.33405104
33	0x3f4d2302	0.8013154
34	0xbe29284a	-0.16519275
35	0x3f931920	1.1492043
36	0x3e20c391	0.15699603
37	0x3f7c13d6	0.9846777
38	0xbf5fbdba	-0.87398875
39	0x3fa7e95f	1.3118094
40	0x3dc186db	0.0944955
41	0x3fbada01	1.459778
42	0x3fe808a0	1.8127632
43	0xbe9b3cb3	-0.30319747
44	0x3ff1856c	1.8868842
45	0xbe41d418	-0.18928564
46	0x3e2f5389	0.1712171
47	0xbfa1c785	-1.2639014
48	0xbe571840	-0.21005344
49	0xbdd15b44	-0.10222486
50	0x3d5383c0	0.05163932
51	0xbe030993	-0.12796621
52	0xbeabe986	-0.33576602
53	0xbd491600	-0.049093246
54	0xbd53c870	-0.051704824
55	0xbd2c2bd0	-0.04203397
56	0x3d848766	0.06471138
57	0x3eb85538	0.36002517
58	0xbfc2f751	-1.5231725
59	0x3f963562	1.1735041
60	0x3f7eda79	0.9955211
61	0x3f356591	0.70858103
62	0x3fc02df2	1.5014021
63	0x3e91b628	0.28459287

l2.bias f4 [8]
0	0x3d834391	0.06409372
1	0xbf2d07da	-0.67590106
2	0x3fa1c95d	1.2639576
3	0x3d987ca1	0.07445646
4	0xbf093124	-0.5359061
5	0x3f6edff8	0.933105
6	0xbea8407a	-0.32861692
7	0xbea78d21	-0.3272486

l3.weight f4 [14, 8]
0	0xbe2e240b	-0.17005937
1	0xc00a0bc6	-2.1569686
2	0x3f7948bb	0.973766
3	0x3f250bea	0.64471304
4	0x3efba818	0.49151683
5	0xc00f3cce	-2.2380862
6	0xbe70213e	-0.23450181
7	0xbf6ef4a5	-0.9334205
8	0xbe81d386	-0.25356692
9	0xbec70df8	-0.38877845
10	0xc02071d6	-2.506948
11	0x3ede3e48	0.43406892
12	0x3f4c5a91	0.79825693
13	0x3caa6908	0.020802036
14	0xbd7bb850	-0.06145507
15	0xbf25a15d	-0.64699346
16	0xc0246650	-2.5687447
17	0x3eee9f8e	0.46606106
18	0x3f883c66	1.0643432
19	0xbea150d2	-0.31506974
20	0xbea91cb5	-0.33029714
21	0xbfea465f	-1.8302726
22	0x3da511b8	0.0806002
23	0xbeebdb0b	-0.46065554
24	0xbf5b71d1	-0.85720545
25	0x3f43b0e1	0.7644177
26	0xbebbd1c1	-0.36683467
27	0xbf74a936	-0.95570695
28	0x3f70d25c	0.9407098
29	0xc010bc9d	-2.261512
30	0xbe8be6b1	-0.2732444
31	0x3ed7f6c3	0.42180452
32	0xbf39878a	-0.7247244
33	0xbec2207c	-0.3791541
34	0xbb40e31c	-0.0029432243
35	0x3e9fda88	0.31221414
36	0xbda7c39e	-0.08191608
37	0xbf285696	-0.6575712
38	0x3e67e916	0.22647509
39	0x3eda2071	0.42602876
40	0xc008a9fa	-2.1353745
41	0xbe6f541a	-0.23371926
42	0x3fd69588	1.6764383
43	0xc02e9875	-2.7280552
44	0xc020bef0	-2.511654
45	0x3f532e6d	0.82492715
46	0x3e112bb2	0.14176825
47	0xc01a037d	-2.406463
48	0x3f4b466f	0.7940435
49	0xbff1d881	-1.8894197
50	0xbf685b6c	-0.907645
51	0x3ee23527	0.44181177
52	0xbfe30aa2	-1.773762
53	0x3f7d8586	0.99031866
54	0x3e911db9	0.2834299
55	0xbfff8a1c	-1.9964023
56	0xc019faf5	-2.4059422
57	0xbfec3cd3	-1.8456062
58	0x3f8e79dd	1.113094
59	0x3f962140	1.1728897
60	0xc023c6a5	-2.5589993
61	0xbc8604c7	-0.0163597
62	0x3e22067e	0.15822789
63	0xbfcba436	-1.5909488
64	0xc0740cc5	-3.8132794
65	0x3eeef707	0.46672842
66	0xbf80175b	-1.0007128
67	0xc01f7627	-2.4915864
68	0x3d70c4f5	0.058781583
69	0x3ed1bbe0	0.4096365
70	0xbe8d3e93	-0.27586803
71	0x3f3448dd	0.7042368
72	0x3d98cb01	0.07460595
73	0xbfa1234a	-1.2588894
74	0xbea3d592	-0.3199888
75	0x3f1176b4	0.5682175
76	0xbc832ca6	-0.016012501
77	0xc047d94e	-3.1226382
78	0xbea143ec	-0.31497133
79	0x3f67a89a	0.9049164
80	0xbfda7a35	-1.7068545
81	0x3ea8b8ba	0.32953435
82	0xbe64e110	-0.2235148
83	0xbd8111bf	-0.06302213
84	0xbe8c5e00	-0.27415466
85	0x3eee6e4a	0.4656852
86	0x3d8d3b50	0.068960786
87	0xbf713d0f	-0.94233793
88	0x3f8218b0	1.0163784
89	0xbff57bdf	-1.9178427
90	0xc00ab132	-2.1670651
91	0x3efd10c2	0.49426848
92	0x3ef2325c	0.47304046
93	0xbfb3e5df	-1.4054526
94	0xbe6a0c02	-0.22856143
95	0x3ea095b5	0.31364217
96	0xc015852d	-2.3362534
97	0xbd99f082	-0.07516576
98	0xc0334660	-2.8011703
99	0x3e66caf3	0.22538356
100	0xbf3d8ea6	-0.7404579
101	0x3efcc680	0.49370193
102	0x3d242a48	0.040079385
103	0x3f29a40a	0.6626593
104	0xc00de603	-2.2171638
105	0x3f3fab60	0.7487087
106	0xc00c6250	-2.1935005
107	0xbfe1ae6f	-1.7631358
108	0xbebd47ae	-0.3696875
109	0x3f8a2643	1.0792927
110	0x3eb4609d	0.3522996
111	0xc002193d	-2.0327904

l3.bias f4 [14]
0	0x3e95acee	0.29233497
1	0xbefc6d45	-0.49302116
2	0xbe77ef54	-0.2421239
3	0xbe7de72e	-0.2479522
4	0x3dd373b2	0.103248015
5	0x3f222652	0.6333972
6	0x3d00c02e	0.031433277
7	0x3ea33283	0.31874475
8	0x3dc5cf7a	0.09658714
9	0xbed24fb9	-0.4107645
10	0xbe6bdfb4	-0.23034555
11	0xbe4c71fd	-0.19965358
12	0xbf0c4ca8	-0.5480447
13	0xbe89540d	-0.26821938
